…
│                     │ 96)               │            │                   │
├─────────────────────┼───────────────────┼────────────┼───────────────────┤
│ batch_normalizatio… │ (None, 13, 13,    │        288 │ conv2d_122[0][0]  │
│ (BatchNormalizatio… │ 96)               │            │                   │
├─────────────────────┼───────────────────┼────────────┼───────────────────┤
│ activation_122      │ (None, 13, 13,    │          0 │ batch_normalizat… │
│ (Activation)        │ 96)               │            │                   │
├─────────────────────┼───────────────────┼────────────┼───────────────────┤
│ conv2d_120 (Conv2D) │ (None, 6, 6, 384) │    995,328 │ mixed2[0][0]      │
├─────────────────────┼───────────────────┼────────────┼───────────────────┤
│ conv2d_123 (Conv2D) │ (None, 6, 6, 96)  │     82,944 │ activation_122[0… │
├─────────────────────┼───────────────────┼────────────┼───────────────────┤
│ batch_normalizatio… │ (None, 6, 6, 384) │      1,152 │ conv2d_120[0][0]  │
│ (BatchNormalizatio… │                   │            │                   │
├─────────────────────┼───────────────────┼────────────┼───────────────────┤
│ batch_normalizatio… │ (None, 6, 6, 96)  │        288 │ conv2d_123[0][0]  │
│ (BatchNormalizatio… │                   │            │                   │
├─────────────────────┼───────────────────┼────────────┼───────────────────┤
│ activation_120      │ (None, 6, 6, 384) │          0 │ batch_normalizat… │
│ (Activation)        │                   │            │                   │
├─────────────────────┼───────────────────┼────────────┼───────────────────┤
│ activation_123      │ (None, 6, 6, 96)  │          0 │ batch_normalizat… │
│ (Activation)        │                   │            │                   │
├─────────────────────┼───────────────────┼────────────┼───────────────────┤
│ max_pooling2d_6     │ (None, 6, 6, 288) │          0 │ mixed2[0][0]      │
│ (MaxPooling2D)      │                   │            │                   │
├─────────────────────┼───────────────────┼────────────┼───────────────────┤
│ mixed3              │ (None, 6, 6, 768) │          0 │ activation_120[0… │
│ (Concatenate)       │                   │            │ activation_123[0… │
│                     │                   │            │ max_pooling2d_6[… │
├─────────────────────┼───────────────────┼────────────┼───────────────────┤
│ conv2d_128 (Conv2D) │ (None, 6, 6, 128) │     98,304 │ mixed3[0][0]      │
├─────────────────────┼───────────────────┼────────────┼───────────────────┤
│ batch_normalizatio… │ (None, 6, 6, 128) │        384 │ conv2d_128[0][0]  │
│ (BatchNormalizatio… │                   │            │                   │
├─────────────────────┼───────────────────┼────────────┼───────────────────┤
│ activation_128      │ (None, 6, 6, 128) │          0 │ batch_normalizat… │
│ (Activation)        │                   │            │                   │
├─────────────────────┼───────────────────┼────────────┼───────────────────┤
│ conv2d_129 (Conv2D) │ (None, 6, 6, 128) │    114,688 │ activation_128[0… │
├─────────────────────┼───────────────────┼────────────┼───────────────────┤
│ batch_normalizatio… │ (None, 6, 6, 128) │        384 │ conv2d_129[0][0]  │
│ (BatchNormalizatio… │                   │            │                   │
├─────────────────────┼───────────────────┼────────────┼───────────────────┤
│ activation_129      │ (None, 6, 6, 128) │          0 │ batch_normalizat… │
│ (Activation)        │                   │            │                   │
├─────────────────────┼───────────────────┼────────────┼───────────────────┤
│ conv2d_125 (Conv2D) │ (None, 6, 6, 128) │     98,304 │ mixed3[0][0]      │
├─────────────────────┼───────────────────┼────────────┼───────────────────┤
│ conv2d_130 (Conv2D) │ (None, 6, 6, 128) │    114,688 │ activation_129[0… │
├─────────────────────┼───────────────────┼────────────┼───────────────────┤
│ batch_normalizatio… │ (None, 6, 6, 128) │        384 │ conv2d_125[0][0]  │
│ (BatchNormalizatio… │                   │            │                   │
├─────────────────────┼───────────────────┼────────────┼───────────────────┤
│ batch_normalizatio… │ (None, 6, 6, 128) │        384 │ conv2d_130[0][0]  │
│ (BatchNormalizatio… │                   │            │                   │
├─────────────────────┼───────────────────┼────────────┼───────────────────┤
│ activation_125      │ (None, 6, 6, 128) │          0 │ batch_normalizat… │
│ (Activation)        │                   │            │                   │
├─────────────────────┼───────────────────┼────────────┼───────────────────┤
│ activation_130      │ (None, 6, 6, 128) │          0 │ batch_normalizat… │
│ (Activation)        │                   │            │                   │
├─────────────────────┼───────────────────┼────────────┼───────────────────┤
│ conv2d_126 (Conv2D) │ (None, 6, 6, 128) │    114,688 │ activation_125[0… │
├─────────────────────┼───────────────────┼────────────┼───────────────────┤
│ conv2d_131 (Conv2D) │ (None, 6, 6, 128) │    114,688 │ activation_130[0… │
├─────────────────────┼───────────────────┼────────────┼───────────────────┤
│ batch_normalizatio… │ (None, 6, 6, 128) │        384 │ conv2d_126[0][0]  │
│ (BatchNormalizatio… │                   │            │                   │
├─────────────────────┼───────────────────┼────────────┼───────────────────┤
│ batch_normalizatio… │ (None, 6, 6, 128) │        384 │ conv2d_131[0][0]  │
│ (BatchNormalizatio… │                   │            │                   │
├─────────────────────┼───────────────────┼────────────┼───────────────────┤
│ activation_126      │ (None, 6, 6, 128) │          0 │ batch_normalizat… │
│ (Activation)        │                   │            │                   │
├─────────────────────┼───────────────────┼────────────┼───────────────────┤
│ activation_131      │ (None, 6, 6, 128) │          0 │ batch_normalizat… │
│ (Activation)        │                   │            │                   │
├─────────────────────┼───────────────────┼────────────┼───────────────────┤
│ average_pooling2d_… │ (None, 6, 6, 768) │          0 │ mixed3[0][0]      │
│ (AveragePooling2D)  │                   │            │                   │
├─────────────────────┼───────────────────┼────────────┼───────────────────┤
│ conv2d_124 (Conv2D) │ (None, 6, 6, 192) │    147,456 │ mixed3[0][0]      │
├─────────────────────┼───────────────────┼────────────┼───────────────────┤
│ conv2d_127 (Conv2D) │ (None, 6, 6, 192) │    172,032 │ activation_126[0… │
├─────────────────────┼───────────────────┼────────────┼───────────────────┤
│ conv2d_132 (Conv2D) │ (None, 6, 6, 192) │    172,032 │ activation_131[0… │
├─────────────────────┼───────────────────┼────────────┼───────────────────┤
│ conv2d_133 (Conv2D) │ (None, 6, 6, 192) │    147,456 │ average_pooling2… │
├─────────────────────┼───────────────────┼────────────┼───────────────────┤
│ batch_normalizatio… │ (None, 6, 6, 192) │        576 │ conv2d_124[0][0]  │
│ (BatchNormalizatio… │                   │            │                   │
├─────────────────────┼───────────────────┼────────────┼───────────────────┤
│ batch_normalizatio… │ (None, 6, 6, 192) │        576 │ conv2d_127[0][0]  │
│ (BatchNormalizatio… │                   │            │                   │
├─────────────────────┼───────────────────┼────────────┼───────────────────┤
│ batch_normalizatio… │ (None, 6, 6, 192) │        576 │ conv2d_132[0][0]  │
│ (BatchNormalizatio… │                   │            │                   │
├─────────────────────┼───────────────────┼────────────┼───────────────────┤
│ batch_normalizatio… │ (None, 6, 6, 192) │        576 │ conv2d_133[0][0]  │
│ (BatchNormalizatio… │                   │            │                   │
├─────────────────────┼───────────────────┼────────────┼───────────────────┤
│ activation_124      │ (None, 6, 6, 192) │          0 │ batch_normalizat… │
│ (Activation)        │                   │            │                   │
├─────────────────────┼───────────────────┼────────────┼───────────────────┤
│ activation_127      │ (None, 6, 6, 192) │          0 │ batch_normalizat… │
│ (Activation)        │                   │            │                   │
├─────────────────────┼───────────────────┼────────────┼───────────────────┤
│ activation_132      │ (None, 6, 6, 192) │          0 │ batch_normalizat… │
│ (Activation)        │                   │            │                   │
├─────────────────────┼───────────────────┼────────────┼───────────────────┤
│ activation_133      │ (None, 6, 6, 192) │          0 │ batch_normalizat… │
│ (Activation)        │                   │            │                   │
├─────────────────────┼───────────────────┼────────────┼───────────────────┤
│ mixed4              │ (None, 6, 6, 768) │          0 │ activation_124[0… │
│ (Concatenate)       │                   │            │ activation_127[0… │
│                     │                   │            │ activation_132[0… │
│                     │                   │            │ activation_133[0… │
├─────────────────────┼───────────────────┼────────────┼───────────────────┤
│ conv2d_138 (Conv2D) │ (None, 6, 6, 160) │    122,880 │ mixed4[0][0]      │
├─────────────────────┼───────────────────┼────────────┼───────────────────┤
│ batch_normalizatio… │ (None, 6, 6, 160) │        480 │ conv2d_138[0][0]  │
│ (BatchNormalizatio… │                   │            │                   │
├─────────────────────┼───────────────────┼────────────┼───────────────────┤
│ activation_138      │ (None, 6, 6, 160) │          0 │ batch_normalizat… │
│ (Activation)        │                   │            │                   │
├─────────────────────┼───────────────────┼────────────┼───────────────────┤
│ conv2d_139 (Conv2D) │ (None, 6, 6, 160) │    179,200 │ activation_138[0… │
├─────────────────────┼───────────────────┼────────────┼───────────────────┤
│ batch_normalizatio… │ (None, 6, 6, 160) │        480 │ conv2d_139[0][0]  │
│ (BatchNormalizatio… │                   │            │                   │
├─────────────────────┼───────────────────┼────────────┼───────────────────┤
│ activation_139      │ (None, 6, 6, 160) │          0 │ batch_normalizat… │
│ (Activation)        │                   │            │                   │
├─────────────────────┼───────────────────┼────────────┼───────────────────┤
│ conv2d_135 (Conv2D) │ (None, 6, 6, 160) │    122,880 │ mixed4[0][0]      │
├─────────────────────┼───────────────────┼────────────┼───────────────────┤
│ conv2d_140 (Conv2D) │ (None, 6, 6, 160) │    179,200 │ activation_139[0… │
├─────────────────────┼───────────────────┼────────────┼───────────────────┤
│ batch_normalizatio… │ (None, 6, 6, 160) │        480 │ conv2d_135[0][0]  │
│ (BatchNormalizatio… │                   │            │                   │
├─────────────────────┼───────────────────┼────────────┼───────────────────┤
│ batch_normalizatio… │ (None, 6, 6, 160) │        480 │ conv2d_140[0][0]  │
│ (BatchNormalizatio… │                   │            │                   │
├─────────────────────┼───────────────────┼────────────┼───────────────────┤
│ activation_135      │ (None, 6, 6, 160) │          0 │ batch_normalizat… │
│ (Activation)        │                   │            │                   │
├─────────────────────┼───────────────────┼────────────┼───────────────────┤
│ activation_140      │ (None, 6, 6, 160) │          0 │ batch_normalizat… │
│ (Activation)        │                   │            │                   │
├─────────────────────┼───────────────────┼────────────┼───────────────────┤
│ conv2d_136 (Conv2D) │ (None, 6, 6, 160) │    179,200 │ activation_135[0… │
├─────────────────────┼───────────────────┼────────────┼───────────────────┤
│ conv2d_141 (Conv2D) │ (None, 6, 6, 160) │    179,200 │ activation_140[0… │
├─────────────────────┼───────────────────┼────────────┼───────────────────┤
│ batch_normalizatio… │ (None, 6, 6, 160) │        480 │ conv2d_136[0][0]  │
│ (BatchNormalizatio… │                   │            │                   │
├─────────────────────┼───────────────────┼────────────┼───────────────────┤
│ batch_normalizatio… │ (None, 6, 6, 160) │        480 │ conv2d_141[0][0]  │
│ (BatchNormalizatio… │                   │            │                   │
├─────────────────────┼───────────────────┼────────────┼───────────────────┤
│ activation_136      │ (None, 6, 6, 160) │          0 │ batch_normalizat… │
│ (Activation)        │                   │            │                   │
├─────────────────────┼───────────────────┼────────────┼───────────────────┤
│ activation_141      │ (None, 6, 6, 160) │          0 │ batch_normalizat… │
│ (Activation)        │                   │            │                   │
├─────────────────────┼───────────────────┼────────────┼───────────────────┤
│ average_pooling2d_… │ (None, 6, 6, 768) │          0 │ mixed4[0][0]      │
│ (AveragePooling2D)  │                   │            │                   │
├─────────────────────┼───────────────────┼────────────┼───────────────────┤
│ conv2d_134 (Conv2D) │ (None, 6, 6, 192) │    147,456 │ mixed4[0][0]      │
├─────────────────────┼───────────────────┼────────────┼───────────────────┤
│ conv2d_137 (Conv2D) │ (None, 6, 6, 192) │    215,040 │ activation_136[0… │
├─────────────────────┼───────────────────┼────────────┼───────────────────┤
│ conv2d_142 (Conv2D) │ (None, 6, 6, 192) │    215,040 │ activation_141[0… │
├─────────────────────┼───────────────────┼────────────┼───────────────────┤
│ conv2d_143 (Conv2D) │ (None, 6, 6, 192) │    147,456 │ average_pooling2… │
├─────────────────────┼───────────────────┼────────────┼───────────────────┤
│ batch_normalizatio… │ (None, 6, 6, 192) │        576 │ conv2d_134[0][0]  │
│ (BatchNormalizatio… │                   │            │                   │
├─────────────────────┼───────────────────┼────────────┼───────────────────┤
│ batch_normalizatio… │ (None, 6, 6, 192) │        576 │ conv2d_137[0][0]  │
│ (BatchNormalizatio… │                   │            │                   │
├─────────────────────┼───────────────────┼────────────┼───────────────────┤
│ batch_normalizatio… │ (None, 6, 6, 192) │        576 │ conv2d_142[0][0]  │
│ (BatchNormalizatio… │                   │            │                   │
├─────────────────────┼───────────────────┼────────────┼───────────────────┤
│ batch_normalizatio… │ (None, 6, 6, 192) │        576 │ conv2d_143[0][0]  │
│ (BatchNormalizatio… │                   │            │                   │
├─────────────────────┼───────────────────┼────────────┼───────────────────┤
│ activation_134      │ (None, 6, 6, 192) │          0 │ batch_normalizat… │
│ (Activation)        │                   │            │                   │
├─────────────────────┼───────────────────┼────────────┼───────────────────┤
│ activation_137      │ (None, 6, 6, 192) │          0 │ batch_normalizat… │
│ (Activation)        │                   │            │                   │
├─────────────────────┼───────────────────┼────────────┼───────────────────┤
│ activation_142      │ (None, 6, 6, 192) │          0 │ batch_normalizat… │
│ (Activation)        │                   │            │                   │
├─────────────────────┼───────────────────┼────────────┼───────────────────┤
│ activation_143      │ (None, 6, 6, 192) │          0 │ batch_normalizat… │
│ (Activation)        │                   │            │                   │
├─────────────────────┼───────────────────┼────────────┼───────────────────┤
│ mixed5              │ (None, 6, 6, 768) │          0 │ activation_134[0… │
│ (Concatenate)       │                   │            │ activation_137[0… │
│                     │                   │            │ activation_142[0… │
│                     │                   │            │ activation_143[0… │
├─────────────────────┼───────────────────┼────────────┼───────────────────┤
│ conv2d_148 (Conv2D) │ (None, 6, 6, 160) │    122,880 │ mixed5[0][0]      │
├─────────────────────┼───────────────────┼────────────┼───────────────────┤
│ batch_normalizatio… │ (None, 6, 6, 160) │        480 │ conv2d_148[0][0]  │
│ (BatchNormalizatio… │                   │            │                   │
├─────────────────────┼───────────────────┼────────────┼───────────────────┤
│ activation_148      │ (None, 6, 6, 160) │          0 │ batch_normalizat… │
│ (Activation)        │                   │            │                   │
├─────────────────────┼───────────────────┼────────────┼───────────────────┤
│ conv2d_149 (Conv2D) │ (None, 6, 6, 160) │    179,200 │ activation_148[0… │
├─────────────────────┼───────────────────┼────────────┼───────────────────┤
│ batch_normalizatio… │ (None, 6, 6, 160) │        480 │ conv2d_149[0][0]  │
│ (BatchNormalizatio… │                   │            │                   │
├─────────────────────┼───────────────────┼────────────┼───────────────────┤
│ activation_149      │ (None, 6, 6, 160) │          0 │ batch_normalizat… │
│ (Activation)        │                   │            │                   │
├─────────────────────┼───────────────────┼────────────┼───────────────────┤
│ conv2d_145 (Conv2D) │ (None, 6, 6, 160) │    122,880 │ mixed5[0][0]      │
├─────────────────────┼───────────────────┼────────────┼───────────────────┤
│ conv2d_150 (Conv2D) │ (None, 6, 6, 160) │    179,200 │ activation_149[0… │
├─────────────────────┼───────────────────┼────────────┼───────────────────┤
│ batch_normalizatio… │ (None, 6, 6, 160) │        480 │ conv2d_145[0][0]  │
│ (BatchNormalizatio… │                   │            │                   │
├─────────────────────┼───────────────────┼────────────┼───────────────────┤
│ batch_normalizatio… │ (None, 6, 6, 160) │        480 │ conv2d_150[0][0]  │
│ (BatchNormalizatio… │                   │            │                   │
├─────────────────────┼───────────────────┼────────────┼───────────────────┤
│ activation_145      │ (None, 6, 6, 160) │          0 │ batch_normalizat… │
│ (Activation)        │                   │            │                   │
├─────────────────────┼───────────────────┼────────────┼───────────────────┤
│ activation_150      │ (None, 6, 6, 160) │          0 │ batch_normalizat… │
│ (Activation)        │                   │            │                   │
├─────────────────────┼───────────────────┼────────────┼───────────────────┤
│ conv2d_146 (Conv2D) │ (None, 6, 6, 160) │    179,200 │ activation_145[0… │
├─────────────────────┼───────────────────┼────────────┼───────────────────┤
│ conv2d_151 (Conv2D) │ (None, 6, 6, 160) │    179,200 │ activation_150[0… │
├─────────────────────┼───────────────────┼────────────┼───────────────────┤
│ batch_normalizatio… │ (None, 6, 6, 160) │        480 │ conv2d_146[0][0]  │
│ (BatchNormalizatio… │                   │            │                   │
├─────────────────────┼───────────────────┼────────────┼───────────────────┤
│ batch_normalizatio… │ (None, 6, 6, 160) │        480 │ conv2d_151[0][0]  │
│ (BatchNormalizatio… │                   │            │                   │
├─────────────────────┼───────────────────┼────────────┼───────────────────┤
│ activation_146      │ (None, 6, 6, 160) │          0 │ batch_normalizat… │
│ (Activation)        │                   │            │                   │
├─────────────────────┼───────────────────┼────────────┼───────────────────┤
│ activation_151      │ (None, 6, 6, 160) │          0 │ batch_normalizat… │
│ (Activation)        │                   │            │                   │
├─────────────────────┼───────────────────┼────────────┼───────────────────┤
│ average_pooling2d_… │ (None, 6, 6, 768) │          0 │ mixed5[0][0]      │
│ (AveragePooling2D)  │                   │            │                   │
├─────────────────────┼───────────────────┼────────────┼───────────────────┤
│ conv2d_144 (Conv2D) │ (None, 6, 6, 192) │    147,456 │ mixed5[0][0]      │
├─────────────────────┼───────────────────┼────────────┼───────────────────┤
│ conv2d_147 (Conv2D) │ (None, 6, 6, 192) │    215,040 │ activation_146[0… │
├─────────────────────┼───────────────────┼────────────┼───────────────────┤
│ conv2d_152 (Conv2D) │ (None, 6, 6, 192) │    215,040 │ activation_151[0… │
├─────────────────────┼───────────────────┼────────────┼───────────────────┤
│ conv2d_153 (Conv2D) │ (None, 6, 6, 192) │    147,456 │ average_pooling2… │
├─────────────────────┼───────────────────┼────────────┼───────────────────┤
│ batch_normalizatio… │ (None, 6, 6, 192) │        576 │ conv2d_144[0][0]  │
│ (BatchNormalizatio… │                   │            │                   │
├─────────────────────┼───────────────────┼────────────┼───────────────────┤
│ batch_normalizatio… │ (None, 6, 6, 192) │        576 │ conv2d_147[0][0]  │
│ (BatchNormalizatio… │                   │            │                   │
├─────────────────────┼───────────────────┼────────────┼───────────────────┤
│ batch_normalizatio… │ (None, 6, 6, 192) │        576 │ conv2d_152[0][0]  │
│ (BatchNormalizatio… │                   │            │                   │
├─────────────────────┼───────────────────┼────────────┼───────────────────┤
│ batch_normalizatio… │ (None, 6, 6, 192) │        576 │ conv2d_153[0][0]  │
│ (BatchNormalizatio… │                   │            │                   │
├─────────────────────┼───────────────────┼────────────┼───────────────────┤
│ activation_144      │ (None, 6, 6, 192) │          0 │ batch_normalizat… │
│ (Activation)        │                   │            │                   │
├─────────────────────┼───────────────────┼────────────┼───────────────────┤
│ activation_147      │ (None, 6, 6, 192) │          0 │ batch_normalizat… │
│ (Activation)        │                   │            │                   │
├─────────────────────┼───────────────────┼────────────┼───────────────────┤
│ activation_152      │ (None, 6, 6, 192) │          0 │ batch_normalizat… │
│ (Activation)        │                   │            │                   │
├─────────────────────┼───────────────────┼────────────┼───────────────────┤
│ activation_153      │ (None, 6, 6, 192) │          0 │ batch_normalizat… │
│ (Activation)        │                   │            │                   │
├─────────────────────┼───────────────────┼────────────┼───────────────────┤
│ mixed6              │ (None, 6, 6, 768) │          0 │ activation_144[0… │
│ (Concatenate)       │                   │            │ activation_147[0… │
│                     │                   │            │ activation_152[0… │
│                     │                   │            │ activation_153[0… │
├─────────────────────┼───────────────────┼────────────┼───────────────────┤
│ conv2d_158 (Conv2D) │ (None, 6, 6, 192) │    147,456 │ mixed6[0][0]      │
├─────────────────────┼───────────────────┼────────────┼───────────────────┤
│ batch_normalizatio… │ (None, 6, 6, 192) │        576 │ conv2d_158[0][0]  │
│ (BatchNormalizatio… │                   │            │                   │
├─────────────────────┼───────────────────┼────────────┼───────────────────┤
│ activation_158      │ (None, 6, 6, 192) │          0 │ batch_normalizat… │
│ (Activation)        │                   │            │                   │
├─────────────────────┼───────────────────┼────────────┼───────────────────┤
│ conv2d_159 (Conv2D) │ (None, 6, 6, 192) │    258,048 │ activation_158[0… │
├─────────────────────┼───────────────────┼────────────┼───────────────────┤
│ batch_normalizatio… │ (None, 6, 6, 192) │        576 │ conv2d_159[0][0]  │
│ (BatchNormalizatio… │                   │            │                   │
├─────────────────────┼───────────────────┼────────────┼───────────────────┤
│ activation_159      │ (None, 6, 6, 192) │          0 │ batch_normalizat… │
│ (Activation)        │                   │            │                   │
├─────────────────────┼───────────────────┼────────────┼───────────────────┤
│ conv2d_155 (Conv2D) │ (None, 6, 6, 192) │    147,456 │ mixed6[0][0]      │
├─────────────────────┼───────────────────┼────────────┼───────────────────┤
│ conv2d_160 (Conv2D) │ (None, 6, 6, 192) │    258,048 │ activation_159[0… │
├─────────────────────┼───────────────────┼────────────┼───────────────────┤
│ batch_normalizatio… │ (None, 6, 6, 192) │        576 │ conv2d_155[0][0]  │
│ (BatchNormalizatio… │                   │            │                   │
├─────────────────────┼───────────────────┼────────────┼───────────────────┤
│ batch_normalizatio… │ (None, 6, 6, 192) │        576 │ conv2d_160[0][0]  │
│ (BatchNormalizatio… │                   │            │                   │
├─────────────────────┼───────────────────┼────────────┼───────────────────┤
│ activation_155      │ (None, 6, 6, 192) │          0 │ batch_normalizat… │
│ (Activation)        │                   │            │                   │
├─────────────────────┼───────────────────┼────────────┼───────────────────┤
│ activation_160      │ (None, 6, 6, 192) │          0 │ batch_normalizat… │
│ (Activation)        │                   │            │                   │
├─────────────────────┼───────────────────┼────────────┼───────────────────┤
│ conv2d_156 (Conv2D) │ (None, 6, 6, 192) │    258,048 │ activation_155[0… │
├─────────────────────┼───────────────────┼────────────┼───────────────────┤
│ conv2d_161 (Conv2D) │ (None, 6, 6, 192) │    258,048 │ activation_160[0… │
├─────────────────────┼───────────────────┼────────────┼───────────────────┤
│ batch_normalizatio… │ (None, 6, 6, 192) │        576 │ conv2d_156[0][0]  │
│ (BatchNormalizatio… │                   │            │                   │
├─────────────────────┼───────────────────┼────────────┼───────────────────┤
│ batch_normalizatio… │ (None, 6, 6, 192) │        576 │ conv2d_161[0][0]  │
│ (BatchNormalizatio… │                   │            │                   │
├─────────────────────┼───────────────────┼────────────┼───────────────────┤
│ activation_156      │ (None, 6, 6, 192) │          0 │ batch_normalizat… │
│ (Activation)        │                   │            │                   │
├─────────────────────┼───────────────────┼────────────┼───────────────────┤
│ activation_161      │ (None, 6, 6, 192) │          0 │ batch_normalizat… │
│ (Activation)        │                   │            │                   │
├─────────────────────┼───────────────────┼────────────┼───────────────────┤
│ average_pooling2d_… │ (None, 6, 6, 768) │          0 │ mixed6[0][0]      │
│ (AveragePooling2D)  │                   │            │                   │
├─────────────────────┼───────────────────┼────────────┼───────────────────┤
│ conv2d_154 (Conv2D) │ (None, 6, 6, 192) │    147,456 │ mixed6[0][0]      │
├─────────────────────┼───────────────────┼────────────┼───────────────────┤
│ conv2d_157 (Conv2D) │ (None, 6, 6, 192) │    258,048 │ activation_156[0… │
├─────────────────────┼───────────────────┼────────────┼───────────────────┤
│ conv2d_162 (Conv2D) │ (None, 6, 6, 192) │    258,048 │ activation_161[0… │
├─────────────────────┼───────────────────┼────────────┼───────────────────┤
│ conv2d_163 (Conv2D) │ (None, 6, 6, 192) │    147,456 │ average_pooling2… │
├─────────────────────┼───────────────────┼────────────┼───────────────────┤
│ batch_normalizatio… │ (None, 6, 6, 192) │        576 │ conv2d_154[0][0]  │
│ (BatchNormalizatio… │                   │            │                   │
├─────────────────────┼───────────────────┼────────────┼───────────────────┤
│ batch_normalizatio… │ (None, 6, 6, 192) │        576 │ conv2d_157[0][0]  │
│ (BatchNormalizatio… │                   │            │                   │
├─────────────────────┼───────────────────┼────────────┼───────────────────┤
│ batch_normalizatio… │ (None, 6, 6, 192) │        576 │ conv2d_162[0][0]  │
│ (BatchNormalizatio… │                   │            │                   │
├─────────────────────┼───────────────────┼────────────┼───────────────────┤
│ batch_normalizatio… │ (None, 6, 6, 192) │        576 │ conv2d_163[0][0]  │
│ (BatchNormalizatio… │                   │            │                   │
├─────────────────────┼───────────────────┼────────────┼───────────────────┤
│ activation_154      │ (None, 6, 6, 192) │          0 │ batch_normalizat… │
│ (Activation)        │                   │            │                   │
├─────────────────────┼───────────────────┼────────────┼───────────────────┤
│ activation_157      │ (None, 6, 6, 192) │          0 │ batch_normalizat… │
│ (Activation)        │                   │            │                   │
├─────────────────────┼───────────────────┼────────────┼───────────────────┤
│ activation_162      │ (None, 6, 6, 192) │          0 │ batch_normalizat… │
│ (Activation)        │                   │            │                   │
├─────────────────────┼───────────────────┼────────────┼───────────────────┤
│ activation_163      │ (None, 6, 6, 192) │          0 │ batch_normalizat… │
│ (Activation)        │                   │            │                   │
├─────────────────────┼───────────────────┼────────────┼───────────────────┤
│ mixed7              │ (None, 6, 6, 768) │          0 │ activation_154[0… │
│ (Concatenate)       │                   │            │ activation_157[0… │
│                     │                   │            │ activation_162[0… │
│                     │                   │            │ activation_163[0… │
├─────────────────────┼───────────────────┼────────────┼───────────────────┤
│ conv2d_166 (Conv2D) │ (None, 6, 6, 192) │    147,456 │ mixed7[0][0]      │
├─────────────────────┼───────────────────┼────────────┼───────────────────┤
│ batch_normalizatio… │ (None, 6, 6, 192) │        576 │ conv2d_166[0][0]  │
│ (BatchNormalizatio… │                   │            │                   │
├─────────────────────┼───────────────────┼────────────┼───────────────────┤
│ activation_166      │ (None, 6, 6, 192) │          0 │ batch_normalizat… │
│ (Activation)        │                   │            │                   │
├─────────────────────┼───────────────────┼────────────┼───────────────────┤
│ conv2d_167 (Conv2D) │ (None, 6, 6, 192) │    258,048 │ activation_166[0… │
├─────────────────────┼───────────────────┼────────────┼───────────────────┤
│ batch_normalizatio… │ (None, 6, 6, 192) │        576 │ conv2d_167[0][0]  │
│ (BatchNormalizatio… │                   │            │                   │
├─────────────────────┼───────────────────┼────────────┼───────────────────┤
│ activation_167      │ (None, 6, 6, 192) │          0 │ batch_normalizat… │
│ (Activation)        │                   │            │                   │
├─────────────────────┼───────────────────┼────────────┼───────────────────┤
│ conv2d_164 (Conv2D) │ (None, 6, 6, 192) │    147,456 │ mixed7[0][0]      │
├─────────────────────┼───────────────────┼────────────┼───────────────────┤
│ conv2d_168 (Conv2D) │ (None, 6, 6, 192) │    258,048 │ activation_167[0… │
├─────────────────────┼───────────────────┼────────────┼───────────────────┤
│ batch_normalizatio… │ (None, 6, 6, 192) │        576 │ conv2d_164[0][0]  │
│ (BatchNormalizatio… │                   │            │                   │
├─────────────────────┼───────────────────┼────────────┼───────────────────┤
│ batch_normalizatio… │ (None, 6, 6, 192) │        576 │ conv2d_168[0][0]  │
│ (BatchNormalizatio… │                   │            │                   │
├─────────────────────┼───────────────────┼────────────┼───────────────────┤
│ activation_164      │ (None, 6, 6, 192) │          0 │ batch_normalizat… │
│ (Activation)        │                   │            │                   │
├─────────────────────┼───────────────────┼────────────┼───────────────────┤
│ activation_168      │ (None, 6, 6, 192) │          0 │ batch_normalizat… │
│ (Activation)        │                   │            │                   │
├─────────────────────┼───────────────────┼────────────┼───────────────────┤
│ conv2d_165 (Conv2D) │ (None, 2, 2, 320) │    552,960 │ activation_164[0… │
├─────────────────────┼───────────────────┼────────────┼───────────────────┤
│ conv2d_169 (Conv2D) │ (None, 2, 2, 192) │    331,776 │ activation_168[0… │
├─────────────────────┼───────────────────┼────────────┼───────────────────┤
│ batch_normalizatio… │ (None, 2, 2, 320) │        960 │ conv2d_165[0][0]  │
│ (BatchNormalizatio… │                   │            │                   │
├─────────────────────┼───────────────────┼────────────┼───────────────────┤
│ batch_normalizatio… │ (None, 2, 2, 192) │        576 │ conv2d_169[0][0]  │
│ (BatchNormalizatio… │                   │            │                   │
├─────────────────────┼───────────────────┼────────────┼───────────────────┤
│ activation_165      │ (None, 2, 2, 320) │          0 │ batch_normalizat… │
│ (Activation)        │                   │            │                   │
├─────────────────────┼───────────────────┼────────────┼───────────────────┤
│ activation_169      │ (None, 2, 2, 192) │          0 │ batch_normalizat… │
│ (Activation)        │                   │            │                   │
├─────────────────────┼───────────────────┼────────────┼───────────────────┤
│ max_pooling2d_7     │ (None, 2, 2, 768) │          0 │ mixed7[0][0]      │
│ (MaxPooling2D)      │                   │            │                   │
├─────────────────────┼───────────────────┼────────────┼───────────────────┤
│ mixed8              │ (None, 2, 2,      │          0 │ activation_165[0… │
│ (Concatenate)       │ 1280)             │            │ activation_169[0… │
│                     │                   │            │ max_pooling2d_7[… │
├─────────────────────┼───────────────────┼────────────┼───────────────────┤
│ conv2d_174 (Conv2D) │ (None, 2, 2, 448) │    573,440 │ mixed8[0][0]      │
├─────────────────────┼───────────────────┼────────────┼───────────────────┤
│ batch_normalizatio… │ (None, 2, 2, 448) │      1,344 │ conv2d_174[0][0]  │
│ (BatchNormalizatio… │                   │            │                   │
├─────────────────────┼───────────────────┼────────────┼───────────────────┤
│ activation_174      │ (None, 2, 2, 448) │          0 │ batch_normalizat… │
│ (Activation)        │                   │            │                   │
├─────────────────────┼───────────────────┼────────────┼───────────────────┤
│ conv2d_171 (Conv2D) │ (None, 2, 2, 384) │    491,520 │ mixed8[0][0]      │
├─────────────────────┼───────────────────┼────────────┼───────────────────┤
│ conv2d_175 (Conv2D) │ (None, 2, 2, 384) │  1,548,288 │ activation_174[0… │
├─────────────────────┼───────────────────┼────────────┼───────────────────┤
│ batch_normalizatio… │ (None, 2, 2, 384) │      1,152 │ conv2d_171[0][0]  │
│ (BatchNormalizatio… │                   │            │                   │
├─────────────────────┼───────────────────┼────────────┼───────────────────┤
│ batch_normalizatio… │ (None, 2, 2, 384) │      1,152 │ conv2d_175[0][0]  │
│ (BatchNormalizatio… │                   │            │                   │
├─────────────────────┼───────────────────┼────────────┼───────────────────┤
│ activation_171      │ (None, 2, 2, 384) │          0 │ batch_normalizat… │
│ (Activation)        │                   │            │                   │
├─────────────────────┼───────────────────┼────────────┼───────────────────┤
│ activation_175      │ (None, 2, 2, 384) │          0 │ batch_normalizat… │
│ (Activation)        │                   │            │                   │
├─────────────────────┼───────────────────┼────────────┼───────────────────┤
│ conv2d_172 (Conv2D) │ (None, 2, 2, 384) │    442,368 │ activation_171[0… │
├─────────────────────┼───────────────────┼────────────┼───────────────────┤
│ conv2d_173 (Conv2D) │ (None, 2, 2, 384) │    442,368 │ activation_171[0… │
├─────────────────────┼───────────────────┼────────────┼───────────────────┤
│ conv2d_176 (Conv2D) │ (None, 2, 2, 384) │    442,368 │ activation_175[0… │
├─────────────────────┼───────────────────┼────────────┼───────────────────┤
│ conv2d_177 (Conv2D) │ (None, 2, 2, 384) │    442,368 │ activation_175[0… │
├─────────────────────┼───────────────────┼────────────┼───────────────────┤
│ average_pooling2d_… │ (None, 2, 2,      │          0 │ mixed8[0][0]      │
│ (AveragePooling2D)  │ 1280)             │            │                   │
├─────────────────────┼───────────────────┼────────────┼───────────────────┤
│ conv2d_170 (Conv2D) │ (None, 2, 2, 320) │    409,600 │ mixed8[0][0]      │
├─────────────────────┼───────────────────┼────────────┼───────────────────┤
│ batch_normalizatio… │ (None, 2, 2, 384) │      1,152 │ conv2d_172[0][0]  │
│ (BatchNormalizatio… │                   │            │                   │
├─────────────────────┼───────────────────┼────────────┼───────────────────┤
│ batch_normalizatio… │ (None, 2, 2, 384) │      1,152 │ conv2d_173[0][0]  │
│ (BatchNormalizatio… │                   │            │                   │
├─────────────────────┼───────────────────┼────────────┼───────────────────┤
│ batch_normalizatio… │ (None, 2, 2, 384) │      1,152 │ conv2d_176[0][0]  │
│ (BatchNormalizatio… │                   │            │                   │
├─────────────────────┼───────────────────┼────────────┼───────────────────┤
│ batch_normalizatio… │ (None, 2, 2, 384) │      1,152 │ conv2d_177[0][0]  │
│ (BatchNormalizatio… │                   │            │                   │
├─────────────────────┼───────────────────┼────────────┼───────────────────┤
│ conv2d_178 (Conv2D) │ (None, 2, 2, 192) │    245,760 │ average_pooling2… │
├─────────────────────┼───────────────────┼────────────┼───────────────────┤
│ batch_normalizatio… │ (None, 2, 2, 320) │        960 │ conv2d_170[0][0]  │
│ (BatchNormalizatio… │                   │            │                   │
├─────────────────────┼───────────────────┼────────────┼───────────────────┤
│ activation_172      │ (None, 2, 2, 384) │          0 │ batch_normalizat… │
│ (Activation)        │                   │            │                   │
├─────────────────────┼───────────────────┼────────────┼───────────────────┤
│ activation_173      │ (None, 2, 2, 384) │          0 │ batch_normalizat… │
│ (Activation)        │                   │            │                   │
├─────────────────────┼───────────────────┼────────────┼───────────────────┤
│ activation_176      │ (None, 2, 2, 384) │          0 │ batch_normalizat… │
│ (Activation)        │                   │            │                   │
├─────────────────────┼───────────────────┼────────────┼───────────────────┤
│ activation_177      │ (None, 2, 2, 384) │          0 │ batch_normalizat… │
│ (Activation)        │                   │            │                   │
├─────────────────────┼───────────────────┼────────────┼───────────────────┤
│ batch_normalizatio… │ (None, 2, 2, 192) │        576 │ conv2d_178[0][0]  │
│ (BatchNormalizatio… │                   │            │                   │
├─────────────────────┼───────────────────┼────────────┼───────────────────┤
│ activation_170      │ (None, 2, 2, 320) │          0 │ batch_normalizat… │
│ (Activation)        │                   │            │                   │
├─────────────────────┼───────────────────┼────────────┼───────────────────┤
│ mixed9_0            │ (None, 2, 2, 768) │          0 │ activation_172[0… │
│ (Concatenate)       │                   │            │ activation_173[0… │
├─────────────────────┼───────────────────┼────────────┼───────────────────┤
│ concatenate_2       │ (None, 2, 2, 768) │          0 │ activation_176[0… │
│ (Concatenate)       │                   │            │ activation_177[0… │
├─────────────────────┼───────────────────┼────────────┼───────────────────┤
│ activation_178      │ (None, 2, 2, 192) │          0 │ batch_normalizat… │
│ (Activation)        │                   │            │                   │
├─────────────────────┼───────────────────┼────────────┼───────────────────┤
│ mixed9              │ (None, 2, 2,      │          0 │ activation_170[0… │
│ (Concatenate)       │ 2048)             │            │ mixed9_0[0][0],   │
│                     │                   │            │ concatenate_2[0]… │
│                     │                   │            │ activation_178[0… │
├─────────────────────┼───────────────────┼────────────┼───────────────────┤
│ conv2d_183 (Conv2D) │ (None, 2, 2, 448) │    917,504 │ mixed9[0][0]      │
├─────────────────────┼───────────────────┼────────────┼───────────────────┤
│ batch_normalizatio… │ (None, 2, 2, 448) │      1,344 │ conv2d_183[0][0]  │
│ (BatchNormalizatio… │                   │            │                   │
├─────────────────────┼───────────────────┼────────────┼───────────────────┤
│ activation_183      │ (None, 2, 2, 448) │          0 │ batch_normalizat… │
│ (Activation)        │                   │            │                   │
├─────────────────────┼───────────────────┼────────────┼───────────────────┤
│ conv2d_180 (Conv2D) │ (None, 2, 2, 384) │    786,432 │ mixed9[0][0]      │
├─────────────────────┼───────────────────┼────────────┼───────────────────┤
│ conv2d_184 (Conv2D) │ (None, 2, 2, 384) │  1,548,288 │ activation_183[0… │
├─────────────────────┼───────────────────┼────────────┼───────────────────┤
│ batch_normalizatio… │ (None, 2, 2, 384) │      1,152 │ conv2d_180[0][0]  │
│ (BatchNormalizatio… │                   │            │                   │
├─────────────────────┼───────────────────┼────────────┼───────────────────┤
│ batch_normalizatio… │ (None, 2, 2, 384) │      1,152 │ conv2d_184[0][0]  │
│ (BatchNormalizatio… │                   │            │                   │
├─────────────────────┼───────────────────┼────────────┼───────────────────┤
│ activation_180      │ (None, 2, 2, 384) │          0 │ batch_normalizat… │
│ (Activation)        │                   │            │                   │
├─────────────────────┼───────────────────┼────────────┼───────────────────┤
│ activation_184      │ (None, 2, 2, 384) │          0 │ batch_normalizat… │
│ (Activation)        │                   │            │                   │
├─────────────────────┼───────────────────┼────────────┼───────────────────┤
│ conv2d_181 (Conv2D) │ (None, 2, 2, 384) │    442,368 │ activation_180[0… │
├─────────────────────┼───────────────────┼────────────┼───────────────────┤
│ conv2d_182 (Conv2D) │ (None, 2, 2, 384) │    442,368 │ activation_180[0… │
├─────────────────────┼───────────────────┼────────────┼───────────────────┤
│ conv2d_185 (Conv2D) │ (None, 2, 2, 384) │    442,368 │ activation_184[0… │
├─────────────────────┼───────────────────┼────────────┼───────────────────┤
│ conv2d_186 (Conv2D) │ (None, 2, 2, 384) │    442,368 │ activation_184[0… │
├─────────────────────┼───────────────────┼────────────┼───────────────────┤
│ average_pooling2d_… │ (None, 2, 2,      │          0 │ mixed9[0][0]      │
│ (AveragePooling2D)  │ 2048)             │            │                   │
├─────────────────────┼───────────────────┼────────────┼───────────────────┤
│ conv2d_179 (Conv2D) │ (None, 2, 2, 320) │    655,360 │ mixed9[0][0]      │
├─────────────────────┼───────────────────┼────────────┼───────────────────┤
│ batch_normalizatio… │ (None, 2, 2, 384) │      1,152 │ conv2d_181[0][0]  │
│ (BatchNormalizatio… │                   │            │                   │
├─────────────────────┼───────────────────┼────────────┼───────────────────┤
│ batch_normalizatio… │ (None, 2, 2, 384) │      1,152 │ conv2d_182[0][0]  │
│ (BatchNormalizatio… │                   │            │                   │
├─────────────────────┼───────────────────┼────────────┼───────────────────┤
│ batch_normalizatio… │ (None, 2, 2, 384) │      1,152 │ conv2d_185[0][0]  │
│ (BatchNormalizatio… │                   │            │                   │
├─────────────────────┼───────────────────┼────────────┼───────────────────┤
│ batch_normalizatio… │ (None, 2, 2, 384) │      1,152 │ conv2d_186[0][0]  │
│ (BatchNormalizatio… │                   │            │                   │
├─────────────────────┼───────────────────┼────────────┼───────────────────┤
│ conv2d_187 (Conv2D) │ (None, 2, 2, 192) │    393,216 │ average_pooling2… │
├─────────────────────┼───────────────────┼────────────┼───────────────────┤
│ batch_normalizatio… │ (None, 2, 2, 320) │        960 │ conv2d_179[0][0]  │
│ (BatchNormalizatio… │                   │            │                   │
├─────────────────────┼───────────────────┼────────────┼───────────────────┤
│ activation_181      │ (None, 2, 2, 384) │          0 │ batch_normalizat… │
│ (Activation)        │                   │            │                   │
├─────────────────────┼───────────────────┼────────────┼───────────────────┤
│ activation_182      │ (None, 2, 2, 384) │          0 │ batch_normalizat… │
│ (Activation)        │                   │            │                   │
├─────────────────────┼───────────────────┼────────────┼───────────────────┤
│ activation_185      │ (None, 2, 2, 384) │          0 │ batch_normalizat… │
│ (Activation)        │                   │            │                   │
├─────────────────────┼───────────────────┼────────────┼───────────────────┤
│ activation_186      │ (None, 2, 2, 384) │          0 │ batch_normalizat… │
│ (Activation)        │                   │            │                   │
├─────────────────────┼───────────────────┼────────────┼───────────────────┤
│ batch_normalizatio… │ (None, 2, 2, 192) │        576 │ conv2d_187[0][0]  │
│ (BatchNormalizatio… │                   │            │                   │
├─────────────────────┼───────────────────┼────────────┼───────────────────┤
│ activation_179      │ (None, 2, 2, 320) │          0 │ batch_normalizat… │
│ (Activation)        │                   │            │                   │
├─────────────────────┼───────────────────┼────────────┼───────────────────┤
│ mixed9_1            │ (None, 2, 2, 768) │          0 │ activation_181[0… │
│ (Concatenate)       │                   │            │ activation_182[0… │
├─────────────────────┼───────────────────┼────────────┼───────────────────┤
│ concatenate_3       │ (None, 2, 2, 768) │          0 │ activation_185[0… │
│ (Concatenate)       │                   │            │ activation_186[0… │
├─────────────────────┼───────────────────┼────────────┼───────────────────┤
│ activation_187      │ (None, 2, 2, 192) │          0 │ batch_normalizat… │
│ (Activation)        │                   │            │                   │
├─────────────────────┼───────────────────┼────────────┼───────────────────┤
│ mixed10             │ (None, 2, 2,      │          0 │ activation_179[0… │
│ (Concatenate)       │ 2048)             │            │ mixed9_1[0][0],   │
│                     │                   │            │ concatenate_3[0]… │
│                     │                   │            │ activation_187[0… │
├─────────────────────┼───────────────────┼────────────┼───────────────────┤
│ flatten_1 (Flatten) │ (None, 8192)      │          0 │ mixed10[0][0]     │
├─────────────────────┼───────────────────┼────────────┼───────────────────┤
│ dense_3 (Dense)     │ (None, 64)        │    524,352 │ flatten_1[0][0]   │
├─────────────────────┼───────────────────┼────────────┼───────────────────┤
│ batch_normalizatio… │ (None, 64)        │        256 │ dense_3[0][0]     │
│ (BatchNormalizatio… │                   │            │                   │
├─────────────────────┼───────────────────┼────────────┼───────────────────┤
│ dropout_2 (Dropout) │ (None, 64)        │          0 │ batch_normalizat… │
├─────────────────────┼───────────────────┼────────────┼───────────────────┤
│ dense_4 (Dense)     │ (None, 16)        │      1,040 │ dropout_2[0][0]   │
├─────────────────────┼───────────────────┼────────────┼───────────────────┤
│ batch_normalizatio… │ (None, 16)        │         64 │ dense_4[0][0]     │
│ (BatchNormalizatio… │                   │            │                   │
├─────────────────────┼───────────────────┼────────────┼───────────────────┤
│ dropout_3 (Dropout) │ (None, 16)        │          0 │ batch_normalizat… │
├─────────────────────┼───────────────────┼────────────┼───────────────────┤
│ dense_5 (Dense)     │ (None, 4)         │         68 │ dropout_3[0][0]   │
└─────────────────────┴───────────────────┴────────────┴───────────────────┘
 Total params: 66,916,510 (255.27 MB)
 Trainable params: 22,293,972 (85.04 MB)
 Non-trainable params: 34,592 (135.12 KB)
 Optimizer params: 44,587,946 (170.09 MB)

