…
│ (BatchNormalizatio… │ 192)              │            │                   │
├─────────────────────┼───────────────────┼────────────┼───────────────────┤
│ block_6_expand_relu │ (None, 16, 16,    │          0 │ block_6_expand_B… │
│ (ReLU)              │ 192)              │            │                   │
├─────────────────────┼───────────────────┼────────────┼───────────────────┤
│ block_6_pad         │ (None, 17, 17,    │          0 │ block_6_expand_r… │
│ (ZeroPadding2D)     │ 192)              │            │                   │
├─────────────────────┼───────────────────┼────────────┼───────────────────┤
│ block_6_depthwise   │ (None, 8, 8, 192) │      1,728 │ block_6_pad[0][0] │
│ (DepthwiseConv2D)   │                   │            │                   │
├─────────────────────┼───────────────────┼────────────┼───────────────────┤
│ block_6_depthwise_… │ (None, 8, 8, 192) │        768 │ block_6_depthwis… │
│ (BatchNormalizatio… │                   │            │                   │
├─────────────────────┼───────────────────┼────────────┼───────────────────┤
│ block_6_depthwise_… │ (None, 8, 8, 192) │          0 │ block_6_depthwis… │
│ (ReLU)              │                   │            │                   │
├─────────────────────┼───────────────────┼────────────┼───────────────────┤
│ block_6_project     │ (None, 8, 8, 64)  │     12,288 │ block_6_depthwis… │
│ (Conv2D)            │                   │            │                   │
├─────────────────────┼───────────────────┼────────────┼───────────────────┤
│ block_6_project_BN  │ (None, 8, 8, 64)  │        256 │ block_6_project[… │
│ (BatchNormalizatio… │                   │            │                   │
├─────────────────────┼───────────────────┼────────────┼───────────────────┤
│ block_7_expand      │ (None, 8, 8, 384) │     24,576 │ block_6_project_… │
│ (Conv2D)            │                   │            │                   │
├─────────────────────┼───────────────────┼────────────┼───────────────────┤
│ block_7_expand_BN   │ (None, 8, 8, 384) │      1,536 │ block_7_expand[0… │
│ (BatchNormalizatio… │                   │            │                   │
├─────────────────────┼───────────────────┼────────────┼───────────────────┤
│ block_7_expand_relu │ (None, 8, 8, 384) │          0 │ block_7_expand_B… │
│ (ReLU)              │                   │            │                   │
├─────────────────────┼───────────────────┼────────────┼───────────────────┤
│ block_7_depthwise   │ (None, 8, 8, 384) │      3,456 │ block_7_expand_r… │
│ (DepthwiseConv2D)   │                   │            │                   │
├─────────────────────┼───────────────────┼────────────┼───────────────────┤
│ block_7_depthwise_… │ (None, 8, 8, 384) │      1,536 │ block_7_depthwis… │
│ (BatchNormalizatio… │                   │            │                   │
├─────────────────────┼───────────────────┼────────────┼───────────────────┤
│ block_7_depthwise_… │ (None, 8, 8, 384) │          0 │ block_7_depthwis… │
│ (ReLU)              │                   │            │                   │
├─────────────────────┼───────────────────┼────────────┼───────────────────┤
│ block_7_project     │ (None, 8, 8, 64)  │     24,576 │ block_7_depthwis… │
│ (Conv2D)            │                   │            │                   │
├─────────────────────┼───────────────────┼────────────┼───────────────────┤
│ block_7_project_BN  │ (None, 8, 8, 64)  │        256 │ block_7_project[… │
│ (BatchNormalizatio… │                   │            │                   │
├─────────────────────┼───────────────────┼────────────┼───────────────────┤
│ block_7_add (Add)   │ (None, 8, 8, 64)  │          0 │ block_6_project_… │
│                     │                   │            │ block_7_project_… │
├─────────────────────┼───────────────────┼────────────┼───────────────────┤
│ block_8_expand      │ (None, 8, 8, 384) │     24,576 │ block_7_add[0][0] │
│ (Conv2D)            │                   │            │                   │
├─────────────────────┼───────────────────┼────────────┼───────────────────┤
│ block_8_expand_BN   │ (None, 8, 8, 384) │      1,536 │ block_8_expand[0… │
│ (BatchNormalizatio… │                   │            │                   │
├─────────────────────┼───────────────────┼────────────┼───────────────────┤
│ block_8_expand_relu │ (None, 8, 8, 384) │          0 │ block_8_expand_B… │
│ (ReLU)              │                   │            │                   │
├─────────────────────┼───────────────────┼────────────┼───────────────────┤
│ block_8_depthwise   │ (None, 8, 8, 384) │      3,456 │ block_8_expand_r… │
│ (DepthwiseConv2D)   │                   │            │                   │
├─────────────────────┼───────────────────┼────────────┼───────────────────┤
│ block_8_depthwise_… │ (None, 8, 8, 384) │      1,536 │ block_8_depthwis… │
│ (BatchNormalizatio… │                   │            │                   │
├─────────────────────┼───────────────────┼────────────┼───────────────────┤
│ block_8_depthwise_… │ (None, 8, 8, 384) │          0 │ block_8_depthwis… │
│ (ReLU)              │                   │            │                   │
├─────────────────────┼───────────────────┼────────────┼───────────────────┤
│ block_8_project     │ (None, 8, 8, 64)  │     24,576 │ block_8_depthwis… │
│ (Conv2D)            │                   │            │                   │
├─────────────────────┼───────────────────┼────────────┼───────────────────┤
│ block_8_project_BN  │ (None, 8, 8, 64)  │        256 │ block_8_project[… │
│ (BatchNormalizatio… │                   │            │                   │
├─────────────────────┼───────────────────┼────────────┼───────────────────┤
│ block_8_add (Add)   │ (None, 8, 8, 64)  │          0 │ block_7_add[0][0… │
│                     │                   │            │ block_8_project_… │
├─────────────────────┼───────────────────┼────────────┼───────────────────┤
│ block_9_expand      │ (None, 8, 8, 384) │     24,576 │ block_8_add[0][0] │
│ (Conv2D)            │                   │            │                   │
├─────────────────────┼───────────────────┼────────────┼───────────────────┤
│ block_9_expand_BN   │ (None, 8, 8, 384) │      1,536 │ block_9_expand[0… │
│ (BatchNormalizatio… │                   │            │                   │
├─────────────────────┼───────────────────┼────────────┼───────────────────┤
│ block_9_expand_relu │ (None, 8, 8, 384) │          0 │ block_9_expand_B… │
│ (ReLU)              │                   │            │                   │
├─────────────────────┼───────────────────┼────────────┼───────────────────┤
│ block_9_depthwise   │ (None, 8, 8, 384) │      3,456 │ block_9_expand_r… │
│ (DepthwiseConv2D)   │                   │            │                   │
├─────────────────────┼───────────────────┼────────────┼───────────────────┤
│ block_9_depthwise_… │ (None, 8, 8, 384) │      1,536 │ block_9_depthwis… │
│ (BatchNormalizatio… │                   │            │                   │
├─────────────────────┼───────────────────┼────────────┼───────────────────┤
│ block_9_depthwise_… │ (None, 8, 8, 384) │          0 │ block_9_depthwis… │
│ (ReLU)              │                   │            │                   │
├─────────────────────┼───────────────────┼────────────┼───────────────────┤
│ block_9_project     │ (None, 8, 8, 64)  │     24,576 │ block_9_depthwis… │
│ (Conv2D)            │                   │            │                   │
├─────────────────────┼───────────────────┼────────────┼───────────────────┤
│ block_9_project_BN  │ (None, 8, 8, 64)  │        256 │ block_9_project[… │
│ (BatchNormalizatio… │                   │            │                   │
├─────────────────────┼───────────────────┼────────────┼───────────────────┤
│ block_9_add (Add)   │ (None, 8, 8, 64)  │          0 │ block_8_add[0][0… │
│                     │                   │            │ block_9_project_… │
├─────────────────────┼───────────────────┼────────────┼───────────────────┤
│ block_10_expand     │ (None, 8, 8, 384) │     24,576 │ block_9_add[0][0] │
│ (Conv2D)            │                   │            │                   │
├─────────────────────┼───────────────────┼────────────┼───────────────────┤
│ block_10_expand_BN  │ (None, 8, 8, 384) │      1,536 │ block_10_expand[… │
│ (BatchNormalizatio… │                   │            │                   │
├─────────────────────┼───────────────────┼────────────┼───────────────────┤
│ block_10_expand_re… │ (None, 8, 8, 384) │          0 │ block_10_expand_… │
│ (ReLU)              │                   │            │                   │
├─────────────────────┼───────────────────┼────────────┼───────────────────┤
│ block_10_depthwise  │ (None, 8, 8, 384) │      3,456 │ block_10_expand_… │
│ (DepthwiseConv2D)   │                   │            │                   │
├─────────────────────┼───────────────────┼────────────┼───────────────────┤
│ block_10_depthwise… │ (None, 8, 8, 384) │      1,536 │ block_10_depthwi… │
│ (BatchNormalizatio… │                   │            │                   │
├─────────────────────┼───────────────────┼────────────┼───────────────────┤
│ block_10_depthwise… │ (None, 8, 8, 384) │          0 │ block_10_depthwi… │
│ (ReLU)              │                   │            │                   │
├─────────────────────┼───────────────────┼────────────┼───────────────────┤
│ block_10_project    │ (None, 8, 8, 96)  │     36,864 │ block_10_depthwi… │
│ (Conv2D)            │                   │            │                   │
├─────────────────────┼───────────────────┼────────────┼───────────────────┤
│ block_10_project_BN │ (None, 8, 8, 96)  │        384 │ block_10_project… │
│ (BatchNormalizatio… │                   │            │                   │
├─────────────────────┼───────────────────┼────────────┼───────────────────┤
│ block_11_expand     │ (None, 8, 8, 576) │     55,296 │ block_10_project… │
│ (Conv2D)            │                   │            │                   │
├─────────────────────┼───────────────────┼────────────┼───────────────────┤
│ block_11_expand_BN  │ (None, 8, 8, 576) │      2,304 │ block_11_expand[… │
│ (BatchNormalizatio… │                   │            │                   │
├─────────────────────┼───────────────────┼────────────┼───────────────────┤
│ block_11_expand_re… │ (None, 8, 8, 576) │          0 │ block_11_expand_… │
│ (ReLU)              │                   │            │                   │
├─────────────────────┼───────────────────┼────────────┼───────────────────┤
│ block_11_depthwise  │ (None, 8, 8, 576) │      5,184 │ block_11_expand_… │
│ (DepthwiseConv2D)   │                   │            │                   │
├─────────────────────┼───────────────────┼────────────┼───────────────────┤
│ block_11_depthwise… │ (None, 8, 8, 576) │      2,304 │ block_11_depthwi… │
│ (BatchNormalizatio… │                   │            │                   │
├─────────────────────┼───────────────────┼────────────┼───────────────────┤
│ block_11_depthwise… │ (None, 8, 8, 576) │          0 │ block_11_depthwi… │
│ (ReLU)              │                   │            │                   │
├─────────────────────┼───────────────────┼────────────┼───────────────────┤
│ block_11_project    │ (None, 8, 8, 96)  │     55,296 │ block_11_depthwi… │
│ (Conv2D)            │                   │            │                   │
├─────────────────────┼───────────────────┼────────────┼───────────────────┤
│ block_11_project_BN │ (None, 8, 8, 96)  │        384 │ block_11_project… │
│ (BatchNormalizatio… │                   │            │                   │
├─────────────────────┼───────────────────┼────────────┼───────────────────┤
│ block_11_add (Add)  │ (None, 8, 8, 96)  │          0 │ block_10_project… │
│                     │                   │            │ block_11_project… │
├─────────────────────┼───────────────────┼────────────┼───────────────────┤
│ block_12_expand     │ (None, 8, 8, 576) │     55,296 │ block_11_add[0][… │
│ (Conv2D)            │                   │            │                   │
├─────────────────────┼───────────────────┼────────────┼───────────────────┤
│ block_12_expand_BN  │ (None, 8, 8, 576) │      2,304 │ block_12_expand[… │
│ (BatchNormalizatio… │                   │            │                   │
├─────────────────────┼───────────────────┼────────────┼───────────────────┤
│ block_12_expand_re… │ (None, 8, 8, 576) │          0 │ block_12_expand_… │
│ (ReLU)              │                   │            │                   │
├─────────────────────┼───────────────────┼────────────┼───────────────────┤
│ block_12_depthwise  │ (None, 8, 8, 576) │      5,184 │ block_12_expand_… │
│ (DepthwiseConv2D)   │                   │            │                   │
├─────────────────────┼───────────────────┼────────────┼───────────────────┤
│ block_12_depthwise… │ (None, 8, 8, 576) │      2,304 │ block_12_depthwi… │
│ (BatchNormalizatio… │                   │            │                   │
├─────────────────────┼───────────────────┼────────────┼───────────────────┤
│ block_12_depthwise… │ (None, 8, 8, 576) │          0 │ block_12_depthwi… │
│ (ReLU)              │                   │            │                   │
├─────────────────────┼───────────────────┼────────────┼───────────────────┤
│ block_12_project    │ (None, 8, 8, 96)  │     55,296 │ block_12_depthwi… │
│ (Conv2D)            │                   │            │                   │
├─────────────────────┼───────────────────┼────────────┼───────────────────┤
│ block_12_project_BN │ (None, 8, 8, 96)  │        384 │ block_12_project… │
│ (BatchNormalizatio… │                   │            │                   │
├─────────────────────┼───────────────────┼────────────┼───────────────────┤
│ block_12_add (Add)  │ (None, 8, 8, 96)  │          0 │ block_11_add[0][… │
│                     │                   │            │ block_12_project… │
├─────────────────────┼───────────────────┼────────────┼───────────────────┤
│ block_13_expand     │ (None, 8, 8, 576) │     55,296 │ block_12_add[0][… │
│ (Conv2D)            │                   │            │                   │
├─────────────────────┼───────────────────┼────────────┼───────────────────┤
│ block_13_expand_BN  │ (None, 8, 8, 576) │      2,304 │ block_13_expand[… │
│ (BatchNormalizatio… │                   │            │                   │
├─────────────────────┼───────────────────┼────────────┼───────────────────┤
│ block_13_expand_re… │ (None, 8, 8, 576) │          0 │ block_13_expand_… │
│ (ReLU)              │                   │            │                   │
├─────────────────────┼───────────────────┼────────────┼───────────────────┤
│ block_13_pad        │ (None, 9, 9, 576) │          0 │ block_13_expand_… │
│ (ZeroPadding2D)     │                   │            │                   │
├─────────────────────┼───────────────────┼────────────┼───────────────────┤
│ block_13_depthwise  │ (None, 4, 4, 576) │      5,184 │ block_13_pad[0][… │
│ (DepthwiseConv2D)   │                   │            │                   │
├─────────────────────┼───────────────────┼────────────┼───────────────────┤
│ block_13_depthwise… │ (None, 4, 4, 576) │      2,304 │ block_13_depthwi… │
│ (BatchNormalizatio… │                   │            │                   │
├─────────────────────┼───────────────────┼────────────┼───────────────────┤
│ block_13_depthwise… │ (None, 4, 4, 576) │          0 │ block_13_depthwi… │
│ (ReLU)              │                   │            │                   │
├─────────────────────┼───────────────────┼────────────┼───────────────────┤
│ block_13_project    │ (None, 4, 4, 160) │     92,160 │ block_13_depthwi… │
│ (Conv2D)            │                   │            │                   │
├─────────────────────┼───────────────────┼────────────┼───────────────────┤
│ block_13_project_BN │ (None, 4, 4, 160) │        640 │ block_13_project… │
│ (BatchNormalizatio… │                   │            │                   │
├─────────────────────┼───────────────────┼────────────┼───────────────────┤
│ block_14_expand     │ (None, 4, 4, 960) │    153,600 │ block_13_project… │
│ (Conv2D)            │                   │            │                   │
├─────────────────────┼───────────────────┼────────────┼───────────────────┤
│ block_14_expand_BN  │ (None, 4, 4, 960) │      3,840 │ block_14_expand[… │
│ (BatchNormalizatio… │                   │            │                   │
├─────────────────────┼───────────────────┼────────────┼───────────────────┤
│ block_14_expand_re… │ (None, 4, 4, 960) │          0 │ block_14_expand_… │
│ (ReLU)              │                   │            │                   │
├─────────────────────┼───────────────────┼────────────┼───────────────────┤
│ block_14_depthwise  │ (None, 4, 4, 960) │      8,640 │ block_14_expand_… │
│ (DepthwiseConv2D)   │                   │            │                   │
├─────────────────────┼───────────────────┼────────────┼───────────────────┤
│ block_14_depthwise… │ (None, 4, 4, 960) │      3,840 │ block_14_depthwi… │
│ (BatchNormalizatio… │                   │            │                   │
├─────────────────────┼───────────────────┼────────────┼───────────────────┤
│ block_14_depthwise… │ (None, 4, 4, 960) │          0 │ block_14_depthwi… │
│ (ReLU)              │                   │            │                   │
├─────────────────────┼───────────────────┼────────────┼───────────────────┤
│ block_14_project    │ (None, 4, 4, 160) │    153,600 │ block_14_depthwi… │
│ (Conv2D)            │                   │            │                   │
├─────────────────────┼───────────────────┼────────────┼───────────────────┤
│ block_14_project_BN │ (None, 4, 4, 160) │        640 │ block_14_project… │
│ (BatchNormalizatio… │                   │            │                   │
├─────────────────────┼───────────────────┼────────────┼───────────────────┤
│ block_14_add (Add)  │ (None, 4, 4, 160) │          0 │ block_13_project… │
│                     │                   │            │ block_14_project… │
├─────────────────────┼───────────────────┼────────────┼───────────────────┤
│ block_15_expand     │ (None, 4, 4, 960) │    153,600 │ block_14_add[0][… │
│ (Conv2D)            │                   │            │                   │
├─────────────────────┼───────────────────┼────────────┼───────────────────┤
│ block_15_expand_BN  │ (None, 4, 4, 960) │      3,840 │ block_15_expand[… │
│ (BatchNormalizatio… │                   │            │                   │
├─────────────────────┼───────────────────┼────────────┼───────────────────┤
│ block_15_expand_re… │ (None, 4, 4, 960) │          0 │ block_15_expand_… │
│ (ReLU)              │                   │            │                   │
├─────────────────────┼───────────────────┼────────────┼───────────────────┤
│ block_15_depthwise  │ (None, 4, 4, 960) │      8,640 │ block_15_expand_… │
│ (DepthwiseConv2D)   │                   │            │                   │
├─────────────────────┼───────────────────┼────────────┼───────────────────┤
│ block_15_depthwise… │ (None, 4, 4, 960) │      3,840 │ block_15_depthwi… │
│ (BatchNormalizatio… │                   │            │                   │
├─────────────────────┼───────────────────┼────────────┼───────────────────┤
│ block_15_depthwise… │ (None, 4, 4, 960) │          0 │ block_15_depthwi… │
│ (ReLU)              │                   │            │                   │
├─────────────────────┼───────────────────┼────────────┼───────────────────┤
│ block_15_project    │ (None, 4, 4, 160) │    153,600 │ block_15_depthwi… │
│ (Conv2D)            │                   │            │                   │
├─────────────────────┼───────────────────┼────────────┼───────────────────┤
│ block_15_project_BN │ (None, 4, 4, 160) │        640 │ block_15_project… │
│ (BatchNormalizatio… │                   │            │                   │
├─────────────────────┼───────────────────┼────────────┼───────────────────┤
│ block_15_add (Add)  │ (None, 4, 4, 160) │          0 │ block_14_add[0][… │
│                     │                   │            │ block_15_project… │
├─────────────────────┼───────────────────┼────────────┼───────────────────┤
│ block_16_expand     │ (None, 4, 4, 960) │    153,600 │ block_15_add[0][… │
│ (Conv2D)            │                   │            │                   │
├─────────────────────┼───────────────────┼────────────┼───────────────────┤
│ block_16_expand_BN  │ (None, 4, 4, 960) │      3,840 │ block_16_expand[… │
│ (BatchNormalizatio… │                   │            │                   │
├─────────────────────┼───────────────────┼────────────┼───────────────────┤
│ block_16_expand_re… │ (None, 4, 4, 960) │          0 │ block_16_expand_… │
│ (ReLU)              │                   │            │                   │
├─────────────────────┼───────────────────┼────────────┼───────────────────┤
│ block_16_depthwise  │ (None, 4, 4, 960) │      8,640 │ block_16_expand_… │
│ (DepthwiseConv2D)   │                   │            │                   │
├─────────────────────┼───────────────────┼────────────┼───────────────────┤
│ block_16_depthwise… │ (None, 4, 4, 960) │      3,840 │ block_16_depthwi… │
│ (BatchNormalizatio… │                   │            │                   │
├─────────────────────┼───────────────────┼────────────┼───────────────────┤
│ block_16_depthwise… │ (None, 4, 4, 960) │          0 │ block_16_depthwi… │
│ (ReLU)              │                   │            │                   │
├─────────────────────┼───────────────────┼────────────┼───────────────────┤
│ block_16_project    │ (None, 4, 4, 320) │    307,200 │ block_16_depthwi… │
│ (Conv2D)            │                   │            │                   │
├─────────────────────┼───────────────────┼────────────┼───────────────────┤
│ block_16_project_BN │ (None, 4, 4, 320) │      1,280 │ block_16_project… │
│ (BatchNormalizatio… │                   │            │                   │
├─────────────────────┼───────────────────┼────────────┼───────────────────┤
│ Conv_1 (Conv2D)     │ (None, 4, 4,      │    409,600 │ block_16_project… │
│                     │ 1280)             │            │                   │
├─────────────────────┼───────────────────┼────────────┼───────────────────┤
│ Conv_1_bn           │ (None, 4, 4,      │      5,120 │ Conv_1[0][0]      │
│ (BatchNormalizatio… │ 1280)             │            │                   │
├─────────────────────┼───────────────────┼────────────┼───────────────────┤
│ out_relu (ReLU)     │ (None, 4, 4,      │          0 │ Conv_1_bn[0][0]   │
│                     │ 1280)             │            │                   │
├─────────────────────┼───────────────────┼────────────┼───────────────────┤
│ flatten_1 (Flatten) │ (None, 20480)     │          0 │ out_relu[0][0]    │
├─────────────────────┼───────────────────┼────────────┼───────────────────┤
│ dense_3 (Dense)     │ (None, 64)        │  1,310,784 │ flatten_1[0][0]   │
├─────────────────────┼───────────────────┼────────────┼───────────────────┤
│ batch_normalizatio… │ (None, 64)        │        256 │ dense_3[0][0]     │
│ (BatchNormalizatio… │                   │            │                   │
├─────────────────────┼───────────────────┼────────────┼───────────────────┤
│ dropout_2 (Dropout) │ (None, 64)        │          0 │ batch_normalizat… │
├─────────────────────┼───────────────────┼────────────┼───────────────────┤
│ dense_4 (Dense)     │ (None, 16)        │      1,040 │ dropout_2[0][0]   │
├─────────────────────┼───────────────────┼────────────┼───────────────────┤
│ batch_normalizatio… │ (None, 16)        │         64 │ dense_4[0][0]     │
│ (BatchNormalizatio… │                   │            │                   │
├─────────────────────┼───────────────────┼────────────┼───────────────────┤
│ dropout_3 (Dropout) │ (None, 16)        │          0 │ batch_normalizat… │
├─────────────────────┼───────────────────┼────────────┼───────────────────┤
│ dense_5 (Dense)     │ (None, 4)         │         68 │ dropout_3[0][0]   │
└─────────────────────┴───────────────────┴────────────┴───────────────────┘
 Total params: 10,642,046 (40.60 MB)
 Trainable params: 3,535,924 (13.49 MB)
 Non-trainable params: 34,272 (133.88 KB)
 Optimizer params: 7,071,850 (26.98 MB)

